…
<figure class="highlight python"><table><tr><td class="code"><pre><span class="line">total = <span class="built_in">sum</span>([param.nelement() <span class="keyword">for</span> param <span class="keyword">in</span> <span class="variable language_">self</span>.trainer.net_work.parameters()])</span><br><span class="line"><span class="built_in">print</span>(<span class="string">&quot;Number of parameter: %.2fM&quot;</span> % (total/<span class="number">1e6</span>))</span><br><span class="line"></span><br><span class="line"><span class="comment"># ---------------------------------------------</span></span><br><span class="line">NetWork(</span><br><span class="line">  (first_net): RestNet8B96C(</span><br><span class="line">    (conv): Conv2d(<span class="number">1</span>, <span class="number">96</span>, kernel_size=(<span class="number">3</span>, <span class="number">3</span>), stride=(<span class="number">1</span>, <span class="number">1</span>), padding=(<span class="number">1</span>, <span class="number">1</span>))</span><br><span class="line">    (bn): BatchNorm2d(<span class="number">96</span>, eps=<span class="number">1e-05</span>, momentum=<span class="number">0.1</span>, affine=<span class="literal">True</span>, track_running_stats=<span class="literal">True</span>)</span><br><span class="line">    (relu): ReLU()</span><br><span class="line">    (residues): Sequential(</span><br><span class="line">      (<span class="number">0</span>): ResidualBlock(</span><br><span class="line">        (conv1): Conv2d(<span class="number">96</span>, <span class="number">96</span>, kernel_size=(<span class="number">3</span>, <span class="number">3</span>), stride=(<span class="number">1</span>, <span class="number">1</span>), padding=(<span class="number">1</span>, <span class="number">1</span>))</span><br><span class="line">        (bn1): BatchNorm2d(<span class="number">96</span>, eps=<span class="number">1e-05</span>, momentum=<span class="number">0.1</span>, affine=<span class="literal">True</span>, track_running_stats=<span class="literal">True</span>)</span><br><span class="line">        (relu): ReLU()</span><br><span class="line">        (conv2): Conv2d(<span class="number">96</span>, <span class="number">96</span>, kernel_size=(<span class="number">3</span>, <span class="number">3</span>), stride=(<span class="number">1</span>, <span class="number">1</span>), padding=(<span class="number">1</span>, <span class="number">1</span>))</span><br><span class="line">        (bn2): BatchNorm2d(<span class="number">96</span>, eps=<span class="number">1e-05</span>, momentum=<span class="number">0.1</span>, affine=<span class="literal">True</span>, track_running_stats=<span class="literal">True</span>)</span><br><span class="line">      )</span><br><span class="line">      (<span class="number">1</span>): ResidualBlock(</span><br><span class="line">        (conv1): Conv2d(<span class="number">96</span>, <span class="number">96</span>, kernel_size=(<span class="number">3</span>, <span class="number">3</span>), stride=(<span class="number">1</span>, <span class="number">1</span>), padding=(<span class="number">1</span>, <span class="number">1</span>))</span><br><span class="line">        (bn1): BatchNorm2d(<span class="number">96</span>, eps=<span class="number">1e-05</span>, momentum=<span class="number">0.1</span>, affine=<span class="literal">True</span>, track_running_stats=<span class="literal">True</span>)</span><br><span class="line">        (relu): ReLU()</span><br><span class="line">        (conv2): Conv2d(<span class="number">96</span>, <span class="number">96</span>, kernel_size=(<span class="number">3</span>, <span class="number">3</span>), stride=(<span class="number">1</span>, <span class="number">1</span>), padding=(<span class="number">1</span>, <span class="number">1</span>))</span><br><span class="line">        (bn2): BatchNorm2d(<span class="number">96</span>, eps=<span class="number">1e-05</span>, momentum=<span class="number">0.1</span>, affine=<span class="literal">True</span>, track_running_stats=<span class="literal">True</span>)</span><br><span class="line">      )</span><br><span class="line">      (<span class="number">2</span>): ResidualBlock(</span><br><span class="line">        (conv1): Conv2d(<span class="number">96</span>, <span class="number">96</span>, kernel_size=(<span class="number">3</span>, <span class="number">3</span>), stride=(<span class="number">1</span>, <span class="number">1</span>), padding=(<span class="number">1</span>, <span class="number">1</span>))</span><br><span class="line">        (bn1): BatchNorm2d(<span class="number">96</span>, eps=<span class="number">1e-05</span>, momentum=<span class="number">0.1</span>, affine=<span class="literal">True</span>, track_running_stats=<span class="literal">True</span>)</span><br><span class="line">        (relu): ReLU()</span><br><span class="line">        (conv2): Conv2d(<span class="number">96</span>, <span class="number">96</span>, kernel_size=(<span class="number">3</span>, <span class="number">3</span>), stride=(<span class="number">1</span>, <span class="number">1</span>), padding=(<span class="number">1</span>, <span class="number">1</span>))</span><br><span class="line">        (bn2): BatchNorm2d(<span class="number">96</span>, eps=<span class="number">1e-05</span>, momentum=<span class="number">0.1</span>, affine=<span class="literal">True</span>, track_running_stats=<span class="literal">True</span>)</span><br><span class="line">      )</span><br><span class="line">      (<span class="number">3</span>): ResidualBlock(</span><br><span class="line">        (conv1): Conv2d(<span class="number">96</span>, <span class="number">96</span>, kernel_size=(<span class="number">3</span>, <span class="number">3</span>), stride=(<span class="number">1</span>, <span class="number">1</span>), padding=(<span class="number">1</span>, <span class="number">1</span>))</span><br><span class="line">        (bn1): BatchNorm2d(<span class="number">96</span>, eps=<span class="number">1e-05</span>, momentum=<span class="number">0.1</span>, affine=<span class="literal">True</span>, track_running_stats=<span class="literal">True</span>)</span><br><span class="line">        (relu): ReLU()</span><br><span class="line">        (conv2): Conv2d(<span class="number">96</span>, <span class="number">96</span>, kernel_size=(<span class="number">3</span>, <span class="number">3</span>), stride=(<span class="number">1</span>, <span class="number">1</span>), padding=(<span class="number">1</span>, <span class="number">1</span>))</span><br><span class="line">        (bn2): BatchNorm2d(<span class="number">96</span>, eps=<span class="number">1e-05</span>, momentum=<span class="number">0.1</span>, affine=<span class="literal">True</span>, track_running_stats=<span class="literal">True</span>)</span><br><span class="line">      )</span><br><span class="line">      (<span class="number">4</span>): ResidualBlock(</span><br><span class="line">        (conv1): Conv2d(<span class="number">96</span>, <span class="number">96</span>, kernel_size=(<span class="number">3</span>, <span class="number">3</span>), stride=(<span class="number">1</span>, <span class="number">1</span>), padding=(<span class="number">1</span>, <span class="number">1</span>))</span><br><span class="line">        (bn1): BatchNorm2d(<span class="number">96</span>, eps=<span class="number">1e-05</span>, momentum=<span class="number">0.1</span>, affine=<span class="literal">True</span>, track_running_stats=<span class="literal">True</span>)</span><br><span class="line">        (relu): ReLU()</span><br><span class="line">        (conv2): Conv2d(<span class="number">96</span>, <span class="number">96</span>, kernel_size=(<span class="number">3</span>, <span class="number">3</span>), stride=(<span class="number">1</span>, <span class="number">1</span>), padding=(<span class="number">1</span>, <span class="number">1</span>))</span><br><span class="line">        (bn2): BatchNorm2d(<span class="number">96</span>, eps=<span class="number">1e-05</span>, momentum=<span class="number">0.1</span>, affine=<span class="literal">True</span>, track_running_stats=<span class="literal">True</span>)</span><br><span class="line">      )</span><br><span class="line">      (<span class="number">5</span>): ResidualBlock(</span><br><span class="line">        (conv1): Conv2d(<span class="number">96</span>, <span class="number">96</span>, kernel_size=(<span class="number">3</span>, <span class="number">3</span>), stride=(<span class="number">1</span>, <span class="number">1</span>), padding=(<span class="number">1</span>, <span class="number">1</span>))</span><br><span class="line">        (bn1): BatchNorm2d(<span class="number">96</span>, eps=<span class="number">1e-05</span>, momentum=<span class="number">0.1</span>, affine=<span class="literal">True</span>, track_running_stats=<span class="literal">True</span>)</span><br><span class="line">        (relu): ReLU()</span><br><span class="line">        (conv2): Conv2d(<span class="number">96</span>, <span class="number">96</span>, kernel_size=(<span class="number">3</span>, <span class="number">3</span>), stride=(<span class="number">1</span>, <span class="number">1</span>), padding=(<span class="number">1</span>, <span class="number">1</span>))</span><br><span class="line">        (bn2): BatchNorm2d(<span class="number">96</span>, eps=<span class="number">1e-05</span>, momentum=<span class="number">0.1</span>, affine=<span class="literal">True</span>, track_running_stats=<span class="literal">True</span>)</span><br><span class="line">      )</span><br><span class="line">      (<span class="number">6</span>): ResidualBlock(</span><br><span class="line">        (conv1): Conv2d(<span class="number">96</span>, <span class="number">96</span>, kernel_size=(<span class="number">3</span>, <span class="number">3</span>), stride=(<span class="number">1</span>, <span class="number">1</span>), padding=(<span class="number">1</span>, <span class="number">1</span>))</span><br><span class="line">        (bn1): BatchNorm2d(<span class="number">96</span>, eps=<span class="number">1e-05</span>, momentum=<span class="number">0.1</span>, affine=<span class="literal">True</span>, track_running_stats=<span class="literal">True</span>)</span><br><span class="line">        (relu): ReLU()</span><br><span class="line">        (conv2): Conv2d(<span class="number">96</span>, <span class="number">96</span>, kernel_size=(<span class="number">3</span>, <span class="number">3</span>), stride=(<span class="number">1</span>, <span class="number">1</span>), padding=(<span class="number">1</span>, <span class="number">1</span>))</span><br><span class="line">        (bn2): BatchNorm2d(<span class="number">96</span>, eps=<span class="number">1e-05</span>, momentum=<span class="number">0.1</span>, affine=<span class="literal">True</span>, track_running_stats=<span class="literal">True</span>)</span><br><span class="line">      )</span><br><span class="line">      (<span class="number">7</span>): ResidualBlock(</span><br><span class="line">        (conv1): Conv2d(<span class="number">96</span>, <span class="number">96</span>, kernel_size=(<span class="number">3</span>, <span class="number">3</span>), stride=(<span class="number">1</span>, <span class="number">1</span>), padding=(<span class="number">1</span>, <span class="number">1</span>))</span><br><span class="line">        (bn1): BatchNorm2d(<span class="number">96</span>, eps=<span class="number">1e-05</span>, momentum=<span class="number">0.1</span>, affine=<span class="literal">True</span>, track_running_stats=<span class="literal">True</span>)</span><br><span class="line">        (relu): ReLU()</span><br><span class="line">        (conv2): Conv2d(<span class="number">96</span>, <span class="number">96</span>, kernel_size=(<span class="number">3</span>, <span class="number">3</span>), stride=(<span class="number">1</span>, <span class="number">1</span>), padding=(<span class="number">1</span>, <span class="number">1</span>))</span><br><span class="line">        (bn2): BatchNorm2d(<span class="number">96</span>, eps=<span class="number">1e-05</span>, momentum=<span class="number">0.1</span>, affine=<span class="literal">True</span>, track_running_stats=<span class="literal">True</span>)</span><br><span class="line">      )</span><br><span class="line">    )</span><br><span class="line">    (policy_head): PolicyHead(</span><br><span class="line">      (conv1): Conv2d(<span class="number">96</span>, <span class="number">48</span>, kernel_size=(<span class="number">3</span>, <span class="number">3</span>), stride=(<span class="number">1</span>, <span class="number">1</span>), padding=(<span class="number">1</span>, <span class="number">1</span>))</span><br><span class="line">      (bn1): BatchNorm2d(<span class="number">48</span>, eps=<span class="number">1e-05</span>, momentum=<span class="number">0.1</span>, affine=<span class="literal">True</span>, track_running_stats=<span class="literal">True</span>)</span><br><span class="line">      (relu): ReLU()</span><br><span class="line">      (conv2): Conv2d(<span class="number">48</span>, <span class="number">1</span>, kernel_size=(<span class="number">3</span>, <span class="number">3</span>), stride=(<span class="number">1</span>, <span class="number">1</span>), padding=(<span class="number">1</span>, <span class="number">1</span>))</span><br><span class="line">      (bn2): BatchNorm2d(<span class="number">1</span>, eps=<span class="number">1e-05</span>, momentum=<span class="number">0.1</span>, affine=<span class="literal">True</span>, track_running_stats=<span class="literal">True</span>)</span><br><span class="line">    )</span><br><span class="line">    (value_head): ValueHead(</span><br><span class="line">      (conv1): Conv2d(<span class="number">96</span>, <span class="number">96</span>, kernel_size=(<span class="number">3</span>, <span class="number">3</span>), stride=(<span class="number">1</span>, <span class="number">1</span>), padding=(<span class="number">1</span>, <span class="number">1</span>))</span><br><span class="line">      (bn1): BatchNorm2d(<span class="number">96</span>, eps=<span class="number">1e-05</span>, momentum=<span class="number">0.1</span>, affine=<span class="literal">True</span>, track_running_stats=<span class="literal">True</span>)</span><br><span class="line">      (conv2): Conv2d(<span class="number">96</span>, <span class="number">96</span>, kernel_size=(<span class="number">3</span>, <span class="number">3</span>), stride=(<span class="number">1</span>, <span class="number">1</span>), padding=(<span class="number">1</span>, <span class="number">1</span>))</span><br><span class="line">      (bn2): BatchNorm2d(<span class="number">96</span>, eps=<span class="number">1e-05</span>, momentum=<span class="number">0.1</span>, affine=<span class="literal">True</span>, track_running_stats=<span class="literal">True</span>)</span><br><span class="line">      (relu): ReLU()</span><br><span class="line">      (fc): Linear(in_features=<span class="number">96</span>, out_features=<span class="number">1</span>, bias=<span class="literal">True</span>)</span><br><span class="line">    )</span><br><span class="line">  )</span><br><span class="line">  (second_net): RestNet8B96C(</span><br><span class="line">    (conv): Conv2d(<span class="number">1</span>, <span class="number">96</span>, kernel_size=(<span class="number">3</span>, <span class="number">3</span>), stride=(<span class="number">1</span>, <span class="number">1</span>), padding=(<span class="number">1</span>, <span class="number">1</span>))</span><br><span class="line">    (bn): BatchNorm2d(<span class="number">96</span>, eps=<span class="number">1e-05</span>, momentum=<span class="number">0.1</span>, affine=<span class="literal">True</span>, track_running_stats=<span class="literal">True</span>)</span><br><span class="line">    (relu): ReLU()</span><br><span class="line">    (residues): Sequential(</span><br><span class="line">      (<span class="number">0</span>): ResidualBlock(</span><br><span class="line">        (conv1): Conv2d(<span class="number">96</span>, <span class="number">96</span>, kernel_size=(<span class="number">3</span>, <span class="number">3</span>), stride=(<span class="number">1</span>, <span class="number">1</span>), padding=(<span class="number">1</span>, <span class="number">1</span>))</span><br><span class="line">        (bn1): BatchNorm2d(<span class="number">96</span>, eps=<span class="number">1e-05</span>, momentum=<span class="number">0.1</span>, affine=<span class="literal">True</span>, track_running_stats=<span class="literal">True</span>)</span><br><span class="line">        (relu): ReLU()</span><br><span class="line">        (conv2): Conv2d(<span class="number">96</span>, <span class="number">96</span>, kernel_size=(<span class="number">3</span>, <span class="number">3</span>), stride=(<span class="number">1</span>, <span class="number">1</span>), padding=(<span class="number">1</span>, <span class="number">1</span>))</span><br><span class="line">        (bn2): BatchNorm2d(<span class="number">96</span>, eps=<span class="number">1e-05</span>, momentum=<span class="number">0.1</span>, affine=<span class="literal">True</span>, track_running_stats=<span class="literal">True</span>)</span><br><span class="line">      )</span><br><span class="line">      (<span class="number">1</span>): ResidualBlock(</span><br><span class="line">        (conv1): Conv2d(<span class="number">96</span>, <span class="number">96</span>, kernel_size=(<span class="number">3</span>, <span class="number">3</span>), stride=(<span class="number">1</span>, <span class="number">1</span>), padding=(<span class="number">1</span>, <span class="number">1</span>))</span><br><span class="line">        (bn1): BatchNorm2d(<span class="number">96</span>, eps=<span class="number">1e-05</span>, momentum=<span class="number">0.1</span>, affine=<span class="literal">True</span>, track_running_stats=<span class="literal">True</span>)</span><br><span class="line">        (relu): ReLU()</span><br><span class="line">        (conv2): Conv2d(<span class="number">96</span>, <span class="number">96</span>, kernel_size=(<span class="number">3</span>, <span class="number">3</span>), stride=(<span class="number">1</span>, <span class="number">1</span>), padding=(<span class="number">1</span>, <span class="number">1</span>))</span><br><span class="line">        (bn2): BatchNorm2d(<span class="number">96</span>, eps=<span class="number">1e-05</span>, momentum=<span class="number">0.1</span>, affine=<span class="literal">True</span>, track_running_stats=<span class="literal">True</span>)</span><br><span class="line">      )</span><br><span class="line">      (<span class="number">2</span>): ResidualBlock(</span><br><span class="line">        (conv1): Conv2d(<span class="number">96</span>, <span class="number">96</span>, kernel_size=(<span class="number">3</span>, <span class="number">3</span>), stride=(<span class="number">1</span>, <span class="number">1</span>), padding=(<span class="number">1</span>, <span class="number">1</span>))</span><br><span class="line">        (bn1): BatchNorm2d(<span class="number">96</span>, eps=<span class="number">1e-05</span>, momentum=<span class="number">0.1</span>, affine=<span class="literal">True</span>, track_running_stats=<span class="literal">True</span>)</span><br><span class="line">        (relu): ReLU()</span><br><span class="line">        (conv2): Conv2d(<span class="number">96</span>, <span class="number">96</span>, kernel_size=(<span class="number">3</span>, <span class="number">3</span>), stride=(<span class="number">1</span>, <span class="number">1</span>), padding=(<span class="number">1</span>, <span class="number">1</span>))</span><br><span class="line">        (bn2): BatchNorm2d(<span class="number">96</span>, eps=<span class="number">1e-05</span>, momentum=<span class="number">0.1</span>, affine=<span class="literal">True</span>, track_running_stats=<span class="literal">True</span>)</span><br><span class="line">      )</span><br><span class="line">      (<span class="number">3</span>): ResidualBlock(</span><br><span class="line">        (conv1): Conv2d(<span class="number">96</span>, <span class="number">96</span>, kernel_size=(<span class="number">3</span>, <span class="number">3</span>), stride=(<span class="number">1</span>, <span class="number">1</span>), padding=(<span class="number">1</span>, <span class="number">1</span>))</span><br><span class="line">        (bn1): BatchNorm2d(<span class="number">96</span>, eps=<span class="number">1e-05</span>, momentum=<span class="number">0.1</span>, affine=<span class="literal">True</span>, track_running_stats=<span class="literal">True</span>)</span><br><span class="line">        (relu): ReLU()</span><br><span class="line">        (conv2): Conv2d(<span class="number">96</span>, <span class="number">96</span>, kernel_size=(<span class="number">3</span>, <span class="number">3</span>), stride=(<span class="number">1</span>, <span class="number">1</span>), padding=(<span class="number">1</span>, <span class="number">1</span>))</span><br><span class="line">        (bn2): BatchNorm2d(<span class="number">96</span>, eps=<span class="number">1e-05</span>, momentum=<span class="number">0.1</span>, affine=<span class="literal">True</span>, track_running_stats=<span class="literal">True</span>)</span><br><span class="line">      )</span><br><span class="line">      (<span class="number">4</span>): ResidualBlock(</span><br><span class="line">        (conv1): Conv2d(<span class="number">96</span>, <span class="number">96</span>, kernel_size=(<span class="number">3</span>, <span class="number">3</span>), stride=(<span class="number">1</span>, <span class="number">1</span>), padding=(<span class="number">1</span>, <span class="number">1</span>))</span><br><span class="line">        (bn1): BatchNorm2d(<span class="number">96</span>, eps=<span class="number">1e-05</span>, momentum=<span class="number">0.1</span>, affine=<span class="literal">True</span>, track_running_stats=<span class="literal">True</span>)</span><br><span class="line">        (relu): ReLU()</span><br><span class="line">        (conv2): Conv2d(<span class="number">96</span>, <span class="number">96</span>, kernel_size=(<span class="number">3</span>, <span class="number">3</span>), stride=(<span class="number">1</span>, <span class="number">1</span>), padding=(<span class="number">1</span>, <span class="number">1</span>))</span><br><span class="line">        (bn2): BatchNorm2d(<span class="number">96</span>, eps=<span class="number">1e-05</span>, momentum=<span class="number">0.1</span>, affine=<span class="literal">True</span>, track_running_stats=<span class="literal">True</span>)</span><br><span class="line">      )</span><br><span class="line">      (<span class="number">5</span>): ResidualBlock(</span><br><span class="line">        (conv1): Conv2d(<span class="number">96</span>, <span class="number">96</span>, kernel_size=(<span class="number">3</span>, <span class="number">3</span>), stride=(<span class="number">1</span>, <span class="number">1</span>), padding=(<span class="number">1</span>, <span class="number">1</span>))</span><br><span class="line">        (bn1): BatchNorm2d(<span class="number">96</span>, eps=<span class="number">1e-05</span>, momentum=<span class="number">0.1</span>, affine=<span class="literal">True</span>, track_running_stats=<span class="literal">True</span>)</span><br><span class="line">        (relu): ReLU()</span><br><span class="line">        (conv2): Conv2d(<span class="number">96</span>, <span class="number">96</span>, kernel_size=(<span class="number">3</span>, <span class="number">3</span>), stride=(<span class="number">1</span>, <span class="number">1</span>), padding=(<span class="number">1</span>, <span class="number">1</span>))</span><br><span class="line">        (bn2): BatchNorm2d(<span class="number">96</span>, eps=<span class="number">1e-05</span>, momentum=<span class="number">0.1</span>, affine=<span class="literal">True</span>, track_running_stats=<span class="literal">True</span>)</span><br><span class="line">      )</span><br><span class="line">      (<span class="number">6</span>): ResidualBlock(</span><br><span class="line">        (conv1): Conv2d(<span class="number">96</span>, <span class="number">96</span>, kernel_size=(<span class="number">3</span>, <span class="number">3</span>), stride=(<span class="number">1</span>, <span class="number">1</span>), padding=(<span class="number">1</span>, <span class="number">1</span>))</span><br><span class="line">        (bn1): BatchNorm2d(<span class="number">96</span>, eps=<span class="number">1e-05</span>, momentum=<span class="number">0.1</span>, affine=<span class="literal">True</span>, track_running_stats=<span class="literal">True</span>)</span><br><span class="line">        (relu): ReLU()</span><br><span class="line">        (conv2): Conv2d(<span class="number">96</span>, <span class="number">96</span>, kernel_size=(<span class="number">3</span>, <span class="number">3</span>), stride=(<span class="number">1</span>, <span class="number">1</span>), padding=(<span class="number">1</span>, <span class="number">1</span>))</span><br><span class="line">        (bn2): BatchNorm2d(<span class="number">96</span>, eps=<span class="number">1e-05</span>, momentum=<span class="number">0.1</span>, affine=<span class="literal">True</span>, track_running_stats=<span class="literal">True</span>)</span><br><span class="line">      )</span><br><span class="line">      (<span class="number">7</span>): ResidualBlock(</span><br><span class="line">        (conv1): Conv2d(<span class="number">96</span>, <span class="number">96</span>, kernel_size=(<span class="number">3</span>, <span class="number">3</span>), stride=(<span class="number">1</span>, <span class="number">1</span>), padding=(<span class="number">1</span>, <span class="number">1</span>))</span><br><span class="line">        (bn1): BatchNorm2d(<span class="number">96</span>, eps=<span class="number">1e-05</span>, momentum=<span class="number">0.1</span>, affine=<span class="literal">True</span>, track_running_stats=<span class="literal">True</span>)</span><br><span class="line">        (relu): ReLU()</span><br><span class="line">        (conv2): Conv2d(<span class="number">96</span>, <span class="number">96</span>, kernel_size=(<span class="number">3</span>, <span class="number">3</span>), stride=(<span class="number">1</span>, <span class="number">1</span>), padding=(<span class="number">1</span>, <span class="number">1</span>))</span><br><span class="line">        (bn2): BatchNorm2d(<span class="number">96</span>, eps=<span class="number">1e-05</span>, momentum=<span class="number">0.1</span>, affine=<span class="literal">True</span>, track_running_stats=<span class="literal">True</span>)</span><br><span class="line">      )</span><br><span class="line">    )</span><br><span class="line">    (policy_head): PolicyHead(</span><br><span class="line">      (conv1): Conv2d(<span class="number">96</span>, <span class="number">48</span>, kernel_size=(<span class="number">3</span>, <span class="number">3</span>), stride=(<span class="number">1</span>, <span class="number">1</span>), padding=(<span class="number">1</span>, <span class="number">1</span>))</span><br><span class="line">      (bn1): BatchNorm2d(<span class="number">48</span>, eps=<span class="number">1e-05</span>, momentum=<span class="number">0.1</span>, affine=<span class="literal">True</span>, track_running_stats=<span class="literal">True</span>)</span><br><span class="line">      (relu): ReLU()</span><br><span class="line">      (conv2): Conv2d(<span class="number">48</span>, <span class="number">1</span>, kernel_size=(<span class="number">3</span>, <span class="number">3</span>), stride=(<span class="number">1</span>, <span class="number">1</span>), padding=(<span class="number">1</span>, <span class="number">1</span>))</span><br><span class="line">      (bn2): BatchNorm2d(<span class="number">1</span>, eps=<span class="number">1e-05</span>, momentum=<span class="number">0.1</span>, affine=<span class="literal">True</span>, track_running_stats=<span class="literal">True</span>)</span><br><span class="line">    )</span><br><span class="line">    (value_head): ValueHead(</span><br><span class="line">      (conv1): Conv2d(<span class="number">96</span>, <span class="number">96</span>, kernel_size=(<span class="number">3</span>, <span class="number">3</span>), stride=(<span class="number">1</span>, <span class="number">1</span>), padding=(<span class="number">1</span>, <span class="number">1</span>))</span><br><span class="line">      (bn1): BatchNorm2d(<span class="number">96</span>, eps=<span class="number">1e-05</span>, momentum=<span class="number">0.1</span>, affine=<span class="literal">True</span>, track_running_stats=<span class="literal">True</span>)</span><br><span class="line">      (conv2): Conv2d(<span class="number">96</span>, <span class="number">96</span>, kernel_size=(<span class="number">3</span>, <span class="number">3</span>), stride=(<span class="number">1</span>, <span class="number">1</span>), padding=(<span class="number">1</span>, <span class="number">1</span>))</span><br><span class="line">      (bn2): BatchNorm2d(<span class="number">96</span>, eps=<span class="number">1e-05</span>, momentum=<span class="number">0.1</span>, affine=<span class="literal">True</span>, track_running_stats=<span class="literal">True</span>)</span><br><span class="line">      (relu): ReLU()</span><br><span class="line">      (fc): Linear(in_features=<span class="number">96</span>, out_features=<span class="number">1</span>, bias=<span class="literal">True</span>)</span><br><span class="line">    )</span><br><span class="line">  )</span><br><span class="line">)</span><br></pre></td></tr></table></figure>

<hr>
<blockquote>
<p>问：你了解过什么深度学习框架吗？</p>
</blockquote>
<p>答：主要使用过pytorch框架</p>
<blockquote>
<p>问：那你知道pytorch中有一个关于分布式计算的接口叫什么吗？</p>
…
<figure class="highlight bash"><table><tr><td class="code"><pre><span class="line">total = <span class="built_in">sum</span>([param.nelement() <span class="keyword">for</span> param <span class="keyword">in</span> self.trainer.net_work.parameters()])</span><br><span class="line"><span class="built_in">print</span>(<span class="string">&quot;Number of parameter: %.2fM&quot;</span> % (total/1e6))</span><br><span class="line"></span><br><span class="line"><span class="comment"># ---------------------------------------------</span></span><br><span class="line">NetWork(</span><br><span class="line">  (first_net): RestNet8B96C(</span><br><span class="line">    (conv): Conv2d(1, 96, kernel_size=(3, 3), stride=(1, 1), padding=(1, 1))</span><br><span class="line">    (bn): BatchNorm2d(96, eps=1e-05, momentum=0.1, affine=True, track_running_stats=True)</span><br><span class="line">    (relu): ReLU()</span><br><span class="line">    (residues): Sequential(</span><br><span class="line">      (0): ResidualBlock(</span><br><span class="line">        (conv1): Conv2d(96, 96, kernel_size=(3, 3), stride=(1, 1), padding=(1, 1))</span><br><span class="line">        (bn1): BatchNorm2d(96, eps=1e-05, momentum=0.1, affine=True, track_running_stats=True)</span><br><span class="line">        (relu): ReLU()</span><br><span class="line">        (conv2): Conv2d(96, 96, kernel_size=(3, 3), stride=(1, 1), padding=(1, 1))</span><br><span class="line">        (bn2): BatchNorm2d(96, eps=1e-05, momentum=0.1, affine=True, track_running_stats=True)</span><br><span class="line">      )</span><br><span class="line">      (1): ResidualBlock(</span><br><span class="line">        (conv1): Conv2d(96, 96, kernel_size=(3, 3), stride=(1, 1), padding=(1, 1))</span><br><span class="line">        (bn1): BatchNorm2d(96, eps=1e-05, momentum=0.1, affine=True, track_running_stats=True)</span><br><span class="line">        (relu): ReLU()</span><br><span class="line">        (conv2): Conv2d(96, 96, kernel_size=(3, 3), stride=(1, 1), padding=(1, 1))</span><br><span class="line">        (bn2): BatchNorm2d(96, eps=1e-05, momentum=0.1, affine=True, track_running_stats=True)</span><br><span class="line">      )</span><br><span class="line">      (2): ResidualBlock(</span><br><span class="line">        (conv1): Conv2d(96, 96, kernel_size=(3, 3), stride=(1, 1), padding=(1, 1))</span><br><span class="line">        (bn1): BatchNorm2d(96, eps=1e-05, momentum=0.1, affine=True, track_running_stats=True)</span><br><span class="line">        (relu): ReLU()</span><br><span class="line">        (conv2): Conv2d(96, 96, kernel_size=(3, 3), stride=(1, 1), padding=(1, 1))</span><br><span class="line">        (bn2): BatchNorm2d(96, eps=1e-05, momentum=0.1, affine=True, track_running_stats=True)</span><br><span class="line">      )</span><br><span class="line">      (3): ResidualBlock(</span><br><span class="line">        (conv1): Conv2d(96, 96, kernel_size=(3, 3), stride=(1, 1), padding=(1, 1))</span><br><span class="line">        (bn1): BatchNorm2d(96, eps=1e-05, momentum=0.1, affine=True, track_running_stats=True)</span><br><span class="line">        (relu): ReLU()</span><br><span class="line">        (conv2): Conv2d(96, 96, kernel_size=(3, 3), stride=(1, 1), padding=(1, 1))</span><br><span class="line">        (bn2): BatchNorm2d(96, eps=1e-05, momentum=0.1, affine=True, track_running_stats=True)</span><br><span class="line">      )</span><br><span class="line">      (4): ResidualBlock(</span><br><span class="line">        (conv1): Conv2d(96, 96, kernel_size=(3, 3), stride=(1, 1), padding=(1, 1))</span><br><span class="line">        (bn1): BatchNorm2d(96, eps=1e-05, momentum=0.1, affine=True, track_running_stats=True)</span><br><span class="line">        (relu): ReLU()</span><br><span class="line">        (conv2): Conv2d(96, 96, kernel_size=(3, 3), stride=(1, 1), padding=(1, 1))</span><br><span class="line">        (bn2): BatchNorm2d(96, eps=1e-05, momentum=0.1, affine=True, track_running_stats=True)</span><br><span class="line">      )</span><br><span class="line">      (5): ResidualBlock(</span><br><span class="line">        (conv1): Conv2d(96, 96, kernel_size=(3, 3), stride=(1, 1), padding=(1, 1))</span><br><span class="line">        (bn1): BatchNorm2d(96, eps=1e-05, momentum=0.1, affine=True, track_running_stats=True)</span><br><span class="line">        (relu): ReLU()</span><br><span class="line">        (conv2): Conv2d(96, 96, kernel_size=(3, 3), stride=(1, 1), padding=(1, 1))</span><br><span class="line">        (bn2): BatchNorm2d(96, eps=1e-05, momentum=0.1, affine=True, track_running_stats=True)</span><br><span class="line">      )</span><br><span class="line">      (6): ResidualBlock(</span><br><span class="line">        (conv1): Conv2d(96, 96, kernel_size=(3, 3), stride=(1, 1), padding=(1, 1))</span><br><span class="line">        (bn1): BatchNorm2d(96, eps=1e-05, momentum=0.1, affine=True, track_running_stats=True)</span><br><span class="line">        (relu): ReLU()</span><br><span class="line">        (conv2): Conv2d(96, 96, kernel_size=(3, 3), stride=(1, 1), padding=(1, 1))</span><br><span class="line">        (bn2): BatchNorm2d(96, eps=1e-05, momentum=0.1, affine=True, track_running_stats=True)</span><br><span class="line">      )</span><br><span class="line">      (7): ResidualBlock(</span><br><span class="line">        (conv1): Conv2d(96, 96, kernel_size=(3, 3), stride=(1, 1), padding=(1, 1))</span><br><span class="line">        (bn1): BatchNorm2d(96, eps=1e-05, momentum=0.1, affine=True, track_running_stats=True)</span><br><span class="line">        (relu): ReLU()</span><br><span class="line">        (conv2): Conv2d(96, 96, kernel_size=(3, 3), stride=(1, 1), padding=(1, 1))</span><br><span class="line">        (bn2): BatchNorm2d(96, eps=1e-05, momentum=0.1, affine=True, track_running_stats=True)</span><br><span class="line">      )</span><br><span class="line">    )</span><br><span class="line">    (policy_head): PolicyHead(</span><br><span class="line">      (conv1): Conv2d(96, 48, kernel_size=(3, 3), stride=(1, 1), padding=(1, 1))</span><br><span class="line">      (bn1): BatchNorm2d(48, eps=1e-05, momentum=0.1, affine=True, track_running_stats=True)</span><br><span class="line">      (relu): ReLU()</span><br><span class="line">      (conv2): Conv2d(48, 1, kernel_size=(3, 3), stride=(1, 1), padding=(1, 1))</span><br><span class="line">      (bn2): BatchNorm2d(1, eps=1e-05, momentum=0.1, affine=True, track_running_stats=True)</span><br><span class="line">    )</span><br><span class="line">    (value_head): ValueHead(</span><br><span class="line">      (conv1): Conv2d(96, 96, kernel_size=(3, 3), stride=(1, 1), padding=(1, 1))</span><br><span class="line">      (bn1): BatchNorm2d(96, eps=1e-05, momentum=0.1, affine=True, track_running_stats=True)</span><br><span class="line">      (conv2): Conv2d(96, 96, kernel_size=(3, 3), stride=(1, 1), padding=(1, 1))</span><br><span class="line">      (bn2): BatchNorm2d(96, eps=1e-05, momentum=0.1, affine=True, track_running_stats=True)</span><br><span class="line">      (relu): ReLU()</span><br><span class="line">      (<span class="built_in">fc</span>): Linear(in_features=96, out_features=1, bias=True)</span><br><span class="line">    )</span><br><span class="line">  )</span><br><span class="line">  (second_net): RestNet8B96C(</span><br><span class="line">    (conv): Conv2d(1, 96, kernel_size=(3, 3), stride=(1, 1), padding=(1, 1))</span><br><span class="line">    (bn): BatchNorm2d(96, eps=1e-05, momentum=0.1, affine=True, track_running_stats=True)</span><br><span class="line">    (relu): ReLU()</span><br><span class="line">    (residues): Sequential(</span><br><span class="line">      (0): ResidualBlock(</span><br><span class="line">        (conv1): Conv2d(96, 96, kernel_size=(3, 3), stride=(1, 1), padding=(1, 1))</span><br><span class="line">        (bn1): BatchNorm2d(96, eps=1e-05, momentum=0.1, affine=True, track_running_stats=True)</span><br><span class="line">        (relu): ReLU()</span><br><span class="line">        (conv2): Conv2d(96, 96, kernel_size=(3, 3), stride=(1, 1), padding=(1, 1))</span><br><span class="line">        (bn2): BatchNorm2d(96, eps=1e-05, momentum=0.1, affine=True, track_running_stats=True)</span><br><span class="line">      )</span><br><span class="line">      (1): ResidualBlock(</span><br><span class="line">        (conv1): Conv2d(96, 96, kernel_size=(3, 3), stride=(1, 1), padding=(1, 1))</span><br><span class="line">        (bn1): BatchNorm2d(96, eps=1e-05, momentum=0.1, affine=True, track_running_stats=True)</span><br><span class="line">        (relu): ReLU()</span><br><span class="line">        (conv2): Conv2d(96, 96, kernel_size=(3, 3), stride=(1, 1), padding=(1, 1))</span><br><span class="line">        (bn2): BatchNorm2d(96, eps=1e-05, momentum=0.1, affine=True, track_running_stats=True)</span><br><span class="line">      )</span><br><span class="line">      (2): ResidualBlock(</span><br><span class="line">        (conv1): Conv2d(96, 96, kernel_size=(3, 3), stride=(1, 1), padding=(1, 1))</span><br><span class="line">        (bn1): BatchNorm2d(96, eps=1e-05, momentum=0.1, affine=True, track_running_stats=True)</span><br><span class="line">        (relu): ReLU()</span><br><span class="line">        (conv2): Conv2d(96, 96, kernel_size=(3, 3), stride=(1, 1), padding=(1, 1))</span><br><span class="line">        (bn2): BatchNorm2d(96, eps=1e-05, momentum=0.1, affine=True, track_running_stats=True)</span><br><span class="line">      )</span><br><span class="line">      (3): ResidualBlock(</span><br><span class="line">        (conv1): Conv2d(96, 96, kernel_size=(3, 3), stride=(1, 1), padding=(1, 1))</span><br><span class="line">        (bn1): BatchNorm2d(96, eps=1e-05, momentum=0.1, affine=True, track_running_stats=True)</span><br><span class="line">        (relu): ReLU()</span><br><span class="line">        (conv2): Conv2d(96, 96, kernel_size=(3, 3), stride=(1, 1), padding=(1, 1))</span><br><span class="line">        (bn2): BatchNorm2d(96, eps=1e-05, momentum=0.1, affine=True, track_running_stats=True)</span><br><span class="line">      )</span><br><span class="line">      (4): ResidualBlock(</span><br><span class="line">        (conv1): Conv2d(96, 96, kernel_size=(3, 3), stride=(1, 1), padding=(1, 1))</span><br><span class="line">        (bn1): BatchNorm2d(96, eps=1e-05, momentum=0.1, affine=True, track_running_stats=True)</span><br><span class="line">        (relu): ReLU()</span><br><span class="line">        (conv2): Conv2d(96, 96, kernel_size=(3, 3), stride=(1, 1), padding=(1, 1))</span><br><span class="line">        (bn2): BatchNorm2d(96, eps=1e-05, momentum=0.1, affine=True, track_running_stats=True)</span><br><span class="line">      )</span><br><span class="line">      (5): ResidualBlock(</span><br><span class="line">        (conv1): Conv2d(96, 96, kernel_size=(3, 3), stride=(1, 1), padding=(1, 1))</span><br><span class="line">        (bn1): BatchNorm2d(96, eps=1e-05, momentum=0.1, affine=True, track_running_stats=True)</span><br><span class="line">        (relu): ReLU()</span><br><span class="line">        (conv2): Conv2d(96, 96, kernel_size=(3, 3), stride=(1, 1), padding=(1, 1))</span><br><span class="line">        (bn2): BatchNorm2d(96, eps=1e-05, momentum=0.1, affine=True, track_running_stats=True)</span><br><span class="line">      )</span><br><span class="line">      (6): ResidualBlock(</span><br><span class="line">        (conv1): Conv2d(96, 96, kernel_size=(3, 3), stride=(1, 1), padding=(1, 1))</span><br><span class="line">        (bn1): BatchNorm2d(96, eps=1e-05, momentum=0.1, affine=True, track_running_stats=True)</span><br><span class="line">        (relu): ReLU()</span><br><span class="line">        (conv2): Conv2d(96, 96, kernel_size=(3, 3), stride=(1, 1), padding=(1, 1))</span><br><span class="line">        (bn2): BatchNorm2d(96, eps=1e-05, momentum=0.1, affine=True, track_running_stats=True)</span><br><span class="line">      )</span><br><span class="line">      (7): ResidualBlock(</span><br><span class="line">        (conv1): Conv2d(96, 96, kernel_size=(3, 3), stride=(1, 1), padding=(1, 1))</span><br><span class="line">        (bn1): BatchNorm2d(96, eps=1e-05, momentum=0.1, affine=True, track_running_stats=True)</span><br><span class="line">        (relu): ReLU()</span><br><span class="line">        (conv2): Conv2d(96, 96, kernel_size=(3, 3), stride=(1, 1), padding=(1, 1))</span><br><span class="line">        (bn2): BatchNorm2d(96, eps=1e-05, momentum=0.1, affine=True, track_running_stats=True)</span><br><span class="line">      )</span><br><span class="line">    )</span><br><span class="line">    (policy_head): PolicyHead(</span><br><span class="line">      (conv1): Conv2d(96, 48, kernel_size=(3, 3), stride=(1, 1), padding=(1, 1))</span><br><span class="line">      (bn1): BatchNorm2d(48, eps=1e-05, momentum=0.1, affine=True, track_running_stats=True)</span><br><span class="line">      (relu): ReLU()</span><br><span class="line">      (conv2): Conv2d(48, 1, kernel_size=(3, 3), stride=(1, 1), padding=(1, 1))</span><br><span class="line">      (bn2): BatchNorm2d(1, eps=1e-05, momentum=0.1, affine=True, track_running_stats=True)</span><br><span class="line">    )</span><br><span class="line">    (value_head): ValueHead(</span><br><span class="line">      (conv1): Conv2d(96, 96, kernel_size=(3, 3), stride=(1, 1), padding=(1, 1))</span><br><span class="line">      (bn1): BatchNorm2d(96, eps=1e-05, momentum=0.1, affine=True, track_running_stats=True)</span><br><span class="line">      (conv2): Conv2d(96, 96, kernel_size=(3, 3), stride=(1, 1), padding=(1, 1))</span><br><span class="line">      (bn2): BatchNorm2d(96, eps=1e-05, momentum=0.1, affine=True, track_running_stats=True)</span><br><span class="line">      (relu): ReLU()</span><br><span class="line">      (<span class="built_in">fc</span>): Linear(in_features=96, out_features=1, bias=True)</span><br><span class="line">    )</span><br><span class="line">  )</span><br><span class="line">)</span><br></pre></td></tr></table></figure>
<hr>
<h1>4 手撕代码</h1>
<p>一共问了两道题，都做出来了，而且做的很好，面试官给出题目我就有了思路，然后思路也是正确的。写代码也是一次写好后直接运行就正确，挺幸运的。</p>
<h2 id="4-1-三数之和">4.1 三数之和</h2>
<p>题目就是力扣上的<a href="https://leetcode.cn/problems/3sum/" title="15. 三数之和">15. 三数之和</a>
…
