…
n class="line">total = <span class="built_in">sum</span>([param.nelement() <span class="keyword">for</span> param <span class="keyword">in</span> self.trainer.net_work.parameters()])</span><br><span class="line"><span class="built_in">print</span>(<span class="string">&quot;Number of parameter: %.2fM&quot;</span> % (total/1e6))</span><br><span class="line"></span><br><span class="line"><span class="comment"># ---------------------------------------------</span></span><br><span class="line">NetWork(</span><br><span class="line">  (first_net): RestNet8B96C(</span><br><span class="line">    (conv): Conv2d(1, 96, kernel_size=(3, 3), stride=(1, 1), padding=(1, 1))</span><br><span class="line">    (bn): BatchNorm2d(96, eps=1e-05, momentum=0.1, affine=True, track_running_stats=True)</span><br><span class="line">    (relu): ReLU()</span><br><span class="line">    (residues): Sequential(</span><br><span class="line">      (0): ResidualBlock(</span><br><span class="line">        (conv1): Conv2d(96, 96, kernel_size=(3, 3), stride=(1, 1), padding=(1, 1))</span><br><span class="line">        (bn1): BatchNorm2d(96, eps=1e-05, momentum=0.1, affine=True, track_running_stats=True)</span><br><span class="line">        (relu): ReLU()</span><br><span class="line">        (conv2): Conv2d(96, 96, kernel_size=(3, 3), stride=(1, 1), padding=(1, 1))</span><br><span class="line">        (bn2): BatchNorm2d(96, eps=1e-05, momentum=0.1, affine=True, track_running_stats=True)</span><br><span class="line">      )</span><br><span class="line">      (1): ResidualBlock(</span><br><span class="line">        (conv1): Conv2d(96, 96, kernel_size=(3, 3), stride=(1, 1), padding=(1, 1))</span><br><span class="line">        (bn1): BatchNorm2d(96, eps=1e-05, momentum=0.1, affine=True, track_running_stats=True)</span><br><span class="line">        (relu): ReLU()</span><br><span class="line">        (conv2): Conv2d(96, 96, kernel_size=(3, 3), stride=(1, 1), padding=(1, 1))</span><br><span class="line">        (bn2): BatchNorm2d(96, eps=1e-05, momentum=0.1, affine=True, track_running_stats=True)</span><br><span class="line">      )</span><br><span class="line">      (2): ResidualBlock(</span><br><span class="line">        (conv1): Conv2d(96, 96, kernel_size=(3, 3), stride=(1, 1), padding=(1, 1))</span><br><span class="line">        (bn1): BatchNorm2d(96, eps=1e-05, momentum=0.1, affine=True, track_running_stats=True)</span><br><span class="line">        (relu): ReLU()</span><br><span class="line">        (conv2): Conv2d(96, 96, kernel_size=(3, 3), stride=(1, 1), padding=(1, 1))</span><br><span class="line">        (bn2): BatchNorm2d(96, eps=1e-05, momentum=0.1, affine=True, track_running_stats=True)</span><br><span class="line">      )</span><br><span class="line">      (3): ResidualBlock(</span><br><span class="line">        (conv1): Conv2d(96, 96, kernel_size=(3, 3), stride=(1, 1), padding=(1, 1))</span><br><span class="line">        (bn1): BatchNorm2d(96, eps=1e-05, momentum=0.1, affine=True, track_running_stats=True)</span><br><span class="line">        (relu): ReLU()</span><br><span class="line">        (conv2): Conv2d(96, 96, kernel_size=(3, 3), stride=(1, 1), padding=(1, 1))</span><br><span class="line">        (bn2): BatchNorm2d(96, eps=1e-05, momentum=0.1, affine=True, track_running_stats=True)</span><br><span class="line">      )</span><br><span class="line">      (4): ResidualBlock(</span><br><span class="line">        (conv1): Conv2d(96, 96, kernel_size=(3, 3), stride=(1, 1), padding=(1, 1))</span><br><span class="line">        (bn1): BatchNorm2d(96, eps=1e-05, momentum=0.1, affine=True, track_running_stats=True)</span><br><span class="line">        (relu): ReLU()</span><br><span class="line">        (conv2): Conv2d(96, 96, kernel_size=(3, 3), stride=(1, 1), padding=(1, 1))</span><br><span class="line">        (bn2): BatchNorm2d(96, eps=1e-05, momentum=0.1, affine=True, track_running_stats=True)</span><br><span class="line">      )</span><br><span class="line">      (5): ResidualBlock(</span><br><span class="line">        (conv1): Conv2d(96, 96, kernel_size=(3, 3), stride=(1, 1), padding=(1, 1))</span><br><span class="line">        (bn1): BatchNorm2d(96, eps=1e-05, momentum=0.1, affine=True, track_running_stats=True)</span><br><span class="line">        (relu): ReLU()</span><br><span class="line">        (conv2): Conv2d(96, 96, kernel_size=(3, 3), stride=(1, 1), padding=(1, 1))</span><br><span class="line">        (bn2): BatchNorm2d(96, eps=1e-05, momentum=0.1, affine=True, track_running_stats=True)</span><br><span class="line">      )</span><br><span class="line">      (6): ResidualBlock(</span><br><span class="line">        (conv1): Conv2d(96, 96, kernel_size=(3, 3), stride=(1, 1), padding=(1, 1))</span><br><span class="line">        (bn1): BatchNorm2d(96, eps=1e-05, momentum=0.1, affine=True, track_running_stats=True)</span><br><span class="line">        (relu): ReLU()</span><br><span class="line">        (conv2): Conv2d(96, 96, kernel_size=(3, 3), stride=(1, 1), padding=(1, 1))</span><br><span class="line">        (bn2): BatchNorm2d(96, eps=1e-05, momentum=0.1, affine=True, track_running_stats=True)</span><br><span class="line">      )</span><br><span class="line">      (7): ResidualBlock(</span><br><span class="line">        (conv1): Conv2d(96, 96, kernel_size=(3, 3), stride=(1, 1), padding=(1, 1))</span><br><span class="line">        (bn1): BatchNorm2d(96, eps=1e-05, momentum=0.1, affine=True, track_running_stats=True)</span><br><span class="line">        (relu): ReLU()</span><br><span class="line">        (conv2): Conv2d(96, 96, kernel_size=(3, 3), stride=(1, 1), padding=(1, 1))</span><br><span class="line">        (bn2): BatchNorm2d(96, eps=1e-05, momentum=0.1, affine=True, track_running_stats=True)</span><br><span class="line">      )</span><br><span class="line">    )</span><br><span class="line">    (policy_head): PolicyHead(</span><br><span class="line">      (conv1): Conv2d(96, 48, kernel_size=(3, 3), stride=(1, 1), padding=(1, 1))</span><br><span class="line">      (bn1): BatchNorm2d(48, eps=1e-05, momentum=0.1, affine=True, track_running_stats=True)</span><br><span class="line">      (relu): ReLU()</span><br><span class="line">      (conv2): Conv2d(48, 1, kernel_size=(3, 3), stride=(1, 1), padding=(1, 1))</span><br><span class="line">      (bn2): BatchNorm2d(1, eps=1e-05, momentum=0.1, affine=True, track_running_stats=True)</span><br><span class="line">    )</span><br><span class="line">    (value_head): ValueHead(</span><br><span class="line">      (conv1): Conv2d(96, 96, kernel_size=(3, 3), stride=(1, 1), padding=(1, 1))</span><br><span class="line">      (bn1): BatchNorm2d(96, eps=1e-05, momentum=0.1, affine=True, track_running_stats=True)</span><br><span class="line">      (conv2): Conv2d(96, 96, kernel_size=(3, 3), stride=(1, 1), padding=(1, 1))</span><br><span class="line">      (bn2): BatchNorm2d(96, eps=1e-05, momentum=0.1, affine=True, track_running_stats=True)</span><br><span class="line">      (relu): ReLU()</span><br><span class="line">      (<span class="built_in">fc</span>): Linear(in_features=96, out_features=1, bias=True)</span><br><span class="line">    )</span><br><span class="line">  )</span><br><span class="line">  (second_net): RestNet8B96C(</span><br><span class="line">    (conv): Conv2d(1, 96, kernel_size=(3, 3), stride=(1, 1), padding=(1, 1))</span><br><span class="line">    (bn): BatchNorm2d(96, eps=1e-05, momentum=0.1, affine=True, track_running_stats=True)</span><br><span class="line">    (relu): ReLU()</span><br><span class="line">    (residues): Sequential(</span><br><span class="line">      (0): ResidualBlock(</span><br><span class="line">        (conv1): Conv2d(96, 96, kernel_size=(3, 3), stride=(1, 1), padding=(1, 1))</span><br><span class="line">        (bn1): BatchNorm2d(96, eps=1e-05, momentum=0.1, affine=True, track_running_stats=True)</span><br><span class="line">        (relu): ReLU()</span><br><span class="line">        (conv2): Conv2d(96, 96, kernel_size=(3, 3), stride=(1, 1), padding=(1, 1))</span><br><span class="line">        (bn2): BatchNorm2d(96, eps=1e-05, momentum=0.1, affine=True, track_running_stats=True)</span><br><span class="line">      )</span><br><span class="line">      (1): ResidualBlock(</span><br><span class="line">        (conv1): Conv2d(96, 96, kernel_size=(3, 3), stride=(1, 1), padding=(1, 1))</span><br><span class="line">        (bn1): BatchNorm2d(96, eps=1e-05, momentum=0.1, affine=True, track_running_stats=True)</span><br><span class="line">        (relu): ReLU()</span><br><span class="line">        (conv2): Conv2d(96, 96, kernel_size=(3, 3), stride=(1, 1), padding=(1, 1))</span><br><span class="line">        (bn2): BatchNorm2d(96, eps=1e-05, momentum=0.1, affine=True, track_running_stats=True)</span><br><span class="line">      )</span><br><span class="line">      (2): ResidualBlock(</span><br><span class="line">        (conv1): Conv2d(96, 96, kernel_size=(3, 3), stride=(1, 1), padding=(1, 1))</span><br><span class="line">        (bn1): BatchNorm2d(96, eps=1e-05, momentum=0.1, affine=True, track_running_stats=True)</span><br><span class="line">        (relu): ReLU()</span><br><span class="line">        (conv2): Conv2d(96, 96, kernel_size=(3, 3), stride=(1, 1), padding=(1, 1))</span><br><span class="line">        (bn2): BatchNorm2d(96, eps=1e-05, momentum=0.1, affine=True, track_running_stats=True)</span><br><span class="line">      )</span><br><span class="line">      (3): ResidualBlock(</span><br><span class="line">        (conv1): Conv2d(96, 96, kernel_size=(3, 3), stride=(1, 1), padding=(1, 1))</span><br><span class="line">        (bn1): BatchNorm2d(96, eps=1e-05, momentum=0.1, affine=True, track_running_stats=True)</span><br><span class="line">        (relu): ReLU()</span><br><span class="line">        (conv2): Conv2d(96, 96, kernel_size=(3, 3), stride=(1, 1), padding=(1, 1))</span><br><span class="line">        (bn2): BatchNorm2d(96, eps=1e-05, momentum=0.1, affine=True, track_running_stats=True)</span><br><span class="line">      )</span><br><span class="line">      (4): ResidualBlock(</span><br><span class="line">        (conv1): Conv2d(96, 96, kernel_size=(3, 3), stride=(1, 1), padding=(1, 1))</span><br><span class="line">        (bn1): BatchNorm2d(96, eps=1e-05, momentum=0.1, affine=True, track_running_stats=True)</span><br><span class="line">        (relu): ReLU()</span><br><span class="line">        (conv2): Conv2d(96, 96, kernel_size=(3, 3), stride=(1, 1), padding=(1, 1))</span><br><span class="line">        (bn2): BatchNorm2d(96, eps=1e-05, momentum=0.1, affine=True, track_running_stats=True)</span><br><span class="line">      )</span><br><span class="line">      (5): ResidualBlock(</span><br><span class="line">        (conv1): Conv2d(96, 96, kernel_size=(3, 3), stride=(1, 1), padding=(1, 1))</span><br><span class="line">        (bn1): BatchNorm2d(96, eps=1e-05, momentum=0.1, affine=True, track_running_stats=True)</span><br><span class="line">        (relu): ReLU()</span><br><span class="line">        (conv2): Conv2d(96, 96, kernel_size=(3, 3), stride=(1, 1), padding=(1, 1))</span><br><span class="line">        (bn2): BatchNorm2d(96, eps=1e-05, momentum=0.1, affine=True, track_running_stats=True)</span><br><span class="line">      )</span><br><span class="line">      (6): ResidualBlock(</span><br><span class="line">        (conv1): Conv2d(96, 96, kernel_size=(3, 3), stride=(1, 1), padding=(1, 1))</span><br><span class="line">        (bn1): BatchNorm2d(96, eps=1e-05, momentum=0.1, affine=True, track_running_stats=True)</span><br><span class="line">        (relu): ReLU()</span><br><span class="line">        (conv2): Conv2d(96, 96, kernel_size=(3, 3), stride=(1, 1), padding=(1, 1))</span><br><span class="line">        (bn2): BatchNorm2d(96, eps=1e-05, momentum=0.1, affine=True, track_running_stats=True)</span><br><span class="line">      )</span><br><span class="line">      (7): ResidualBlock(</span><br><span class="line">        (conv1): Conv2d(96, 96, kernel_size=(3, 3), stride=(1, 1), padding=(1, 1))</span><br><span class="line">        (bn1): BatchNorm2d(96, eps=1e-05, momentum=0.1, affine=True, track_running_stats=True)</span><br><span class="line">        (relu): ReLU()</span><br><span class="line">        (conv2): Conv2d(96, 96, kernel_size=(3, 3), stride=(1, 1), padding=(1, 1))</span><br><span class="line">        (bn2): BatchNorm2d(96, eps=1e-05, momentum=0.1, affine=True, track_running_stats=True)</span><br><span class="line">      )</span><br><span class="line">    )</span><br><span class="line">    (policy_head): PolicyHead(</span><br><span class="line">      (conv1): Conv2d(96, 48, kernel_size=(3, 3), stride=(1, 1), padding=(1, 1))</span><br><span class="line">      (bn1): BatchNorm2d(48, eps=1e-05, momentum=0.1, affine=True, track_running_stats=True)</span><br><span class="line">      (relu): ReLU()</span><br><span class="line">      (conv2): Conv2d(48, 1, kernel_size=(3, 3), stride=(1, 1), padding=(1, 1))</span><br><span class="line">      (bn2): BatchNorm2d(1, eps=1e-05, momentum=0.1, affine=True, track_running_stats=True)</span><br><span class="line">    )</span><br><span class="line">    (value_head): ValueHead(</span><br><span class="line">      (conv1): Conv2d(96, 96, kernel_size=(3, 3), stride=(1, 1), padding=(1, 1))</span><br><span class="line">      (bn1): BatchNorm2d(96, eps=1e-05, momentum=0.1, affine=True, track_running_stats=True)</span><br><span class="line">      (conv2): Conv2d(96, 96, kernel_size=(3, 3), stride=(1, 1), padding=(1, 1))</span><br><span class="line">      (bn2): BatchNorm2d(96, eps=1e-05, momentum=0.1, affine=True, track_running_stats=True)</span><br><span class="line">      (relu): ReLU()</span><br><span class="line">      (<span class="built_in">fc</span>): Linear(in_features=96, out_features=1, bias=True)</span><br><span class="line">    )</span><br><span class="line">  )</span><br><span class="line">)</span><br></pre></td></tr></table></figure><hr><h1 id="4-æ‰‹æ’•ä»£ç "><a href="#4-æ‰‹æ’•ä»£ç " class="headerlink" title="4 æ‰‹æ’•ä»£ç "></a>4 æ‰‹æ’•ä»£ç </h1><p>ä¸€å…±é—®äº†ä¸¤é“é¢˜ï¼Œéƒ½åšå‡ºæ¥äº†ï¼Œè€Œä¸”åšçš„å¾ˆå¥½ï¼Œé¢è¯•å®˜ç»™å‡ºé¢˜ç›®æˆ‘å°±æœ‰äº†æ€è·¯ï
…
ment() <span class="keyword">for</span> param <span class="keyword">in</span> <span class="variable language_">self</span>.trainer.net_work.parameters()])</span><br><span class="line"><span class="built_in">print</span>(<span class="string">&quot;Number of parameter: %.2fM&quot;</span> % (total/<span class="number">1e6</span>))</span><br><span class="line"></span><br><span class="line"><span class="comment"># ---------------------------------------------</span></span><br><span class="line">NetWork(</span><br><span class="line">  (first_net): RestNet8B96C(</span><br><span class="line">    (conv): Conv2d(<span class="number">1</span>, <span class="number">96</span>, kernel_size=(<span class="number">3</span>, <span class="number">3</span>), stride=(<span class="number">1</span>, <span class="number">1</span>), padding=(<span class="number">1</span>, <span class="number">1</span>))</span><br><span class="line">    (bn): BatchNorm2d(<span class="number">96</span>, eps=<span class="number">1e-05</span>, momentum=<span class="number">0.1</span>, affine=<span class="literal">True</span>, track_running_stats=<span class="literal">True</span>)</span><br><span class="line">    (relu): ReLU()</span><br><span class="line">    (residues): Sequential(</span><br><span class="line">      (<span class="number">0</span>): ResidualBlock(</span><br><span class="line">        (conv1): Conv2d(<span class="number">96</span>, <span class="number">96</span>, kernel_size=(<span class="number">3</span>, <span class="number">3</span>), stride=(<span class="number">1</span>, <span class="number">1</span>), padding=(<span class="number">1</span>, <span class="number">1</span>))</span><br><span class="line">        (bn1): BatchNorm2d(<span class="number">96</span>, eps=<span class="number">1e-05</span>, momentum=<span class="number">0.1</span>, affine=<span class="literal">True</span>, track_running_stats=<span class="literal">True</span>)</span><br><span class="line">        (relu): ReLU()</span><br><span class="line">        (conv2): Conv2d(<span class="number">96</span>, <span class="number">96</span>, kernel_size=(<span class="number">3</span>, <span class="number">3</span>), stride=(<span class="number">1</span>, <span class="number">1</span>), padding=(<span class="number">1</span>, <span class="number">1</span>))</span><br><span class="line">        (bn2): BatchNorm2d(<span class="number">96</span>, eps=<span class="number">1e-05</span>, momentum=<span class="number">0.1</span>, affine=<span class="literal">True</span>, track_running_stats=<span class="literal">True</span>)</span><br><span class="line">      )</span><br><span class="line">      (<span class="number">1</span>): ResidualBlock(</span><br><span class="line">        (conv1): Conv2d(<span class="number">96</span>, <span class="number">96</span>, kernel_size=(<span class="number">3</span>, <span class="number">3</span>), stride=(<span class="number">1</span>, <span class="number">1</span>), padding=(<span class="number">1</span>, <span class="number">1</span>))</span><br><span class="line">        (bn1): BatchNorm2d(<span class="number">96</span>, eps=<span class="number">1e-05</span>, momentum=<span class="number">0.1</span>, affine=<span class="literal">True</span>, track_running_stats=<span class="literal">True</span>)</span><br><span class="line">        (relu): ReLU()</span><br><span class="line">        (conv2): Conv2d(<span class="number">96</span>, <span class="number">96</span>, kernel_size=(<span class="number">3</span>, <span class="number">3</span>), stride=(<span class="number">1</span>, <span class="number">1</span>), padding=(<span class="number">1</span>, <span class="number">1</span>))</span><br><span class="line">        (bn2): BatchNorm2d(<span class="number">96</span>, eps=<span class="number">1e-05</span>, momentum=<span class="number">0.1</span>, affine=<span class="literal">True</span>, track_running_stats=<span class="literal">True</span>)</span><br><span class="line">      )</span><br><span class="line">      (<span class="number">2</span>): ResidualBlock(</span><br><span class="line">        (conv1): Conv2d(<span class="number">96</span>, <span class="number">96</span>, kernel_size=(<span class="number">3</span>, <span class="number">3</span>), stride=(<span class="number">1</span>, <span class="number">1</span>), padding=(<span class="number">1</span>, <span class="number">1</span>))</span><br><span class="line">        (bn1): BatchNorm2d(<span class="number">96</span>, eps=<span class="number">1e-05</span>, momentum=<span class="number">0.1</span>, affine=<span class="literal">True</span>, track_running_stats=<span class="literal">True</span>)</span><br><span class="line">        (relu): ReLU()</span><br><span class="line">        (conv2): Conv2d(<span class="number">96</span>, <span class="number">96</span>, kernel_size=(<span class="number">3</span>, <span class="number">3</span>), stride=(<span class="number">1</span>, <span class="number">1</span>), padding=(<span class="number">1</span>, <span class="number">1</span>))</span><br><span class="line">        (bn2): BatchNorm2d(<span class="number">96</span>, eps=<span class="number">1e-05</span>, momentum=<span class="number">0.1</span>, affine=<span class="literal">True</span>, track_running_stats=<span class="literal">True</span>)</span><br><span class="line">      )</span><br><span class="line">      (<span class="number">3</span>): ResidualBlock(</span><br><span class="line">        (conv1): Conv2d(<span class="number">96</span>, <span class="number">96</span>, kernel_size=(<span class="number">3</span>, <span class="number">3</span>), stride=(<span class="number">1</span>, <span class="number">1</span>), padding=(<span class="number">1</span>, <span class="number">1</span>))</span><br><span class="line">        (bn1): BatchNorm2d(<span class="number">96</span>, eps=<span class="number">1e-05</span>, momentum=<span class="number">0.1</span>, affine=<span class="literal">True</span>, track_running_stats=<span class="literal">True</span>)</span><br><span class="line">        (relu): ReLU()</span><br><span class="line">        (conv2): Conv2d(<span class="number">96</span>, <span class="number">96</span>, kernel_size=(<span class="number">3</span>, <span class="number">3</span>), stride=(<span class="number">1</span>, <span class="number">1</span>), padding=(<span class="number">1</span>, <span class="number">1</span>))</span><br><span class="line">        (bn2): BatchNorm2d(<span class="number">96</span>, eps=<span class="number">1e-05</span>, momentum=<span class="number">0.1</span>, affine=<span class="literal">True</span>, track_running_stats=<span class="literal">True</span>)</span><br><span class="line">      )</span><br><span class="line">      (<span class="number">4</span>): ResidualBlock(</span><br><span class="line">        (conv1): Conv2d(<span class="number">96</span>, <span class="number">96</span>, kernel_size=(<span class="number">3</span>, <span class="number">3</span>), stride=(<span class="number">1</span>, <span class="number">1</span>), padding=(<span class="number">1</span>, <span class="number">1</span>))</span><br><span class="line">        (bn1): BatchNorm2d(<span class="number">96</span>, eps=<span class="number">1e-05</span>, momentum=<span class="number">0.1</span>, affine=<span class="literal">True</span>, track_running_stats=<span class="literal">True</span>)</span><br><span class="line">        (relu): ReLU()</span><br><span class="line">        (conv2): Conv2d(<span class="number">96</span>, <span class="number">96</span>, kernel_size=(<span class="number">3</span>, <span class="number">3</span>), stride=(<span class="number">1</span>, <span class="number">1</span>), padding=(<span class="number">1</span>, <span class="number">1</span>))</span><br><span class="line">        (bn2): BatchNorm2d(<span class="number">96</span>, eps=<span class="number">1e-05</span>, momentum=<span class="number">0.1</span>, affine=<span class="literal">True</span>, track_running_stats=<span class="literal">True</span>)</span><br><span class="line">      )</span><br><span class="line">      (<span class="number">5</span>): ResidualBlock(</span><br><span class="line">        (conv1): Conv2d(<span class="number">96</span>, <span class="number">96</span>, kernel_size=(<span class="number">3</span>, <span class="number">3</span>), stride=(<span class="number">1</span>, <span class="number">1</span>), padding=(<span class="number">1</span>, <span class="number">1</span>))</span><br><span class="line">        (bn1): BatchNorm2d(<span class="number">96</span>, eps=<span class="number">1e-05</span>, momentum=<span class="number">0.1</span>, affine=<span class="literal">True</span>, track_running_stats=<span class="literal">True</span>)</span><br><span class="line">        (relu): ReLU()</span><br><span class="line">        (conv2): Conv2d(<span class="number">96</span>, <span class="number">96</span>, kernel_size=(<span class="number">3</span>, <span class="number">3</span>), stride=(<span class="number">1</span>, <span class="number">1</span>), padding=(<span class="number">1</span>, <span class="number">1</span>))</span><br><span class="line">        (bn2): BatchNorm2d(<span class="number">96</span>, eps=<span class="number">1e-05</span>, momentum=<span class="number">0.1</span>, affine=<span class="literal">True</span>, track_running_stats=<span class="literal">True</span>)</span><br><span class="line">      )</span><br><span class="line">      (<span class="number">6</span>): ResidualBlock(</span><br><span class="line">        (conv1): Conv2d(<span class="number">96</span>, <span class="number">96</span>, kernel_size=(<span class="number">3</span>, <span class="number">3</span>), stride=(<span class="number">1</span>, <span class="number">1</span>), padding=(<span class="number">1</span>, <span class="number">1</span>))</span><br><span class="line">        (bn1): BatchNorm2d(<span class="number">96</span>, eps=<span class="number">1e-05</span>, momentum=<span class="number">0.1</span>, affine=<span class="literal">True</span>, track_running_stats=<span class="literal">True</span>)</span><br><span class="line">        (relu): ReLU()</span><br><span class="line">        (conv2): Conv2d(<span class="number">96</span>, <span class="number">96</span>, kernel_size=(<span class="number">3</span>, <span class="number">3</span>), stride=(<span class="number">1</span>, <span class="number">1</span>), padding=(<span class="number">1</span>, <span class="number">1</span>))</span><br><span class="line">        (bn2): BatchNorm2d(<span class="number">96</span>, eps=<span class="number">1e-05</span>, momentum=<span class="number">0.1</span>, affine=<span class="literal">True</span>, track_running_stats=<span class="literal">True</span>)</span><br><span class="line">      )</span><br><span class="line">      (<span class="number">7</span>): ResidualBlock(</span><br><span class="line">        (conv1): Conv2d(<span class="number">96</span>, <span class="number">96</span>, kernel_size=(<span class="number">3</span>, <span class="number">3</span>), stride=(<span class="number">1</span>, <span class="number">1</span>), padding=(<span class="number">1</span>, <span class="number">1</span>))</span><br><span class="line">        (bn1): BatchNorm2d(<span class="number">96</span>, eps=<span class="number">1e-05</span>, momentum=<span class="number">0.1</span>, affine=<span class="literal">True</span>, track_running_stats=<span class="literal">True</span>)</span><br><span class="line">        (relu): ReLU()</span><br><span class="line">        (conv2): Conv2d(<span class="number">96</span>, <span class="number">96</span>, kernel_size=(<span class="number">3</span>, <span class="number">3</span>), stride=(<span class="number">1</span>, <span class="number">1</span>), padding=(<span class="number">1</span>, <span class="number">1</span>))</span><br><span class="line">        (bn2): BatchNorm2d(<span class="number">96</span>, eps=<span class="number">1e-05</span>, momentum=<span class="number">0.1</span>, affine=<span class="literal">True</span>, track_running_stats=<span class="literal">True</span>)</span><br><span class="line">      )</span><br><span class="line">    )</span><br><span class="line">    (policy_head): PolicyHead(</span><br><span class="line">      (conv1): Conv2d(<span class="number">96</span>, <span class="number">48</span>, kernel_size=(<span class="number">3</span>, <span class="number">3</span>), stride=(<span class="number">1</span>, <span class="number">1</span>), padding=(<span class="number">1</span>, <span class="number">1</span>))</span><br><span class="line">      (bn1): BatchNorm2d(<span class="number">48</span>, eps=<span class="number">1e-05</span>, momentum=<span class="number">0.1</span>, affine=<span class="literal">True</span>, track_running_stats=<span class="literal">True</span>)</span><br><span class="line">      (relu): ReLU()</span><br><span class="line">      (conv2): Conv2d(<span class="number">48</span>, <span class="number">1</span>, kernel_size=(<span class="number">3</span>, <span class="number">3</span>), stride=(<span class="number">1</span>, <span class="number">1</span>), padding=(<span class="number">1</span>, <span class="number">1</span>))</span><br><span class="line">      (bn2): BatchNorm2d(<span class="number">1</span>, eps=<span class="number">1e-05</span>, momentum=<span class="number">0.1</span>, affine=<span class="literal">True</span>, track_running_stats=<span class="literal">True</span>)</span><br><span class="line">    )</span><br><span class="line">    (value_head): ValueHead(</span><br><span class="line">      (conv1): Conv2d(<span class="number">96</span>, <span class="number">96</span>, kernel_size=(<span class="number">3</span>, <span class="number">3</span>), stride=(<span class="number">1</span>, <span class="number">1</span>), padding=(<span class="number">1</span>, <span class="number">1</span>))</span><br><span class="line">      (bn1): BatchNorm2d(<span class="number">96</span>, eps=<span class="number">1e-05</span>, momentum=<span class="number">0.1</span>, affine=<span class="literal">True</span>, track_running_stats=<span class="literal">True</span>)</span><br><span class="line">      (conv2): Conv2d(<span class="number">96</span>, <span class="number">96</span>, kernel_size=(<span class="number">3</span>, <span class="number">3</span>), stride=(<span class="number">1</span>, <span class="number">1</span>), padding=(<span class="number">1</span>, <span class="number">1</span>))</span><br><span class="line">      (bn2): BatchNorm2d(<span class="number">96</span>, eps=<span class="number">1e-05</span>, momentum=<span class="number">0.1</span>, affine=<span class="literal">True</span>, track_running_stats=<span class="literal">True</span>)</span><br><span class="line">      (relu): ReLU()</span><br><span class="line">      (fc): Linear(in_features=<span class="number">96</span>, out_features=<span class="number">1</span>, bias=<span class="literal">True</span>)</span><br><span class="line">    )</span><br><span class="line">  )</span><br><span class="line">  (second_net): RestNet8B96C(</span><br><span class="line">    (conv): Conv2d(<span class="number">1</span>, <span class="number">96</span>, kernel_size=(<span class="number">3</span>, <span class="number">3</span>), stride=(<span class="number">1</span>, <span class="number">1</span>), padding=(<span class="number">1</span>, <span class="number">1</span>))</span><br><span class="line">    (bn): BatchNorm2d(<span class="number">96</span>, eps=<span class="number">1e-05</span>, momentum=<span class="number">0.1</span>, affine=<span class="literal">True</span>, track_running_stats=<span class="literal">True</span>)</span><br><span class="line">    (relu): ReLU()</span><br><span class="line">    (residues): Sequential(</span><br><span class="line">      (<span class="number">0</span>): ResidualBlock(</span><br><span class="line">        (conv1): Conv2d(<span class="number">96</span>, <span class="number">96</span>, kernel_size=(<span class="number">3</span>, <span class="number">3</span>), stride=(<span class="number">1</span>, <span class="number">1</span>), padding=(<span class="number">1</span>, <span class="number">1</span>))</span><br><span class="line">        (bn1): BatchNorm2d(<span class="number">96</span>, eps=<span class="number">1e-05</span>, momentum=<span class="number">0.1</span>, affine=<span class="literal">True</span>, track_running_stats=<span class="literal">True</span>)</span><br><span class="line">        (relu): ReLU()</span><br><span class="line">        (conv2): Conv2d(<span class="number">96</span>, <span class="number">96</span>, kernel_size=(<span class="number">3</span>, <span class="number">3</span>), stride=(<span class="number">1</span>, <span class="number">1</span>), padding=(<span class="number">1</span>, <span class="number">1</span>))</span><br><span class="line">        (bn2): BatchNorm2d(<span class="number">96</span>, eps=<span class="number">1e-05</span>, momentum=<span class="number">0.1</span>, affine=<span class="literal">True</span>, track_running_stats=<span class="literal">True</span>)</span><br><span class="line">      )</span><br><span class="line">      (<span class="number">1</span>): ResidualBlock(</span><br><span class="line">        (conv1): Conv2d(<span class="number">96</span>, <span class="number">96</span>, kernel_size=(<span class="number">3</span>, <span class="number">3</span>), stride=(<span class="number">1</span>, <span class="number">1</span>), padding=(<span class="number">1</span>, <span class="number">1</span>))</span><br><span class="line">        (bn1): BatchNorm2d(<span class="number">96</span>, eps=<span class="number">1e-05</span>, momentum=<span class="number">0.1</span>, affine=<span class="literal">True</span>, track_running_stats=<span class="literal">True</span>)</span><br><span class="line">        (relu): ReLU()</span><br><span class="line">        (conv2): Conv2d(<span class="number">96</span>, <span class="number">96</span>, kernel_size=(<span class="number">3</span>, <span class="number">3</span>), stride=(<span class="number">1</span>, <span class="number">1</span>), padding=(<span class="number">1</span>, <span class="number">1</span>))</span><br><span class="line">        (bn2): BatchNorm2d(<span class="number">96</span>, eps=<span class="number">1e-05</span>, momentum=<span class="number">0.1</span>, affine=<span class="literal">True</span>, track_running_stats=<span class="literal">True</span>)</span><br><span class="line">      )</span><br><span class="line">      (<span class="number">2</span>): ResidualBlock(</span><br><span class="line">        (conv1): Conv2d(<span class="number">96</span>, <span class="number">96</span>, kernel_size=(<span class="number">3</span>, <span class="number">3</span>), stride=(<span class="number">1</span>, <span class="number">1</span>), padding=(<span class="number">1</span>, <span class="number">1</span>))</span><br><span class="line">        (bn1): BatchNorm2d(<span class="number">96</span>, eps=<span class="number">1e-05</span>, momentum=<span class="number">0.1</span>, affine=<span class="literal">True</span>, track_running_stats=<span class="literal">True</span>)</span><br><span class="line">        (relu): ReLU()</span><br><span class="line">        (conv2): Conv2d(<span class="number">96</span>, <span class="number">96</span>, kernel_size=(<span class="number">3</span>, <span class="number">3</span>), stride=(<span class="number">1</span>, <span class="number">1</span>), padding=(<span class="number">1</span>, <span class="number">1</span>))</span><br><span class="line">        (bn2): BatchNorm2d(<span class="number">96</span>, eps=<span class="number">1e-05</span>, momentum=<span class="number">0.1</span>, affine=<span class="literal">True</span>, track_running_stats=<span class="literal">True</span>)</span><br><span class="line">      )</span><br><span class="line">      (<span class="number">3</span>): ResidualBlock(</span><br><span class="line">        (conv1): Conv2d(<span class="number">96</span>, <span class="number">96</span>, kernel_size=(<span class="number">3</span>, <span class="number">3</span>), stride=(<span class="number">1</span>, <span class="number">1</span>), padding=(<span class="number">1</span>, <span class="number">1</span>))</span><br><span class="line">        (bn1): BatchNorm2d(<span class="number">96</span>, eps=<span class="number">1e-05</span>, momentum=<span class="number">0.1</span>, affine=<span class="literal">True</span>, track_running_stats=<span class="literal">True</span>)</span><br><span class="line">        (relu): ReLU()</span><br><span class="line">        (conv2): Conv2d(<span class="number">96</span>, <span class="number">96</span>, kernel_size=(<span class="number">3</span>, <span class="number">3</span>), stride=(<span class="number">1</span>, <span class="number">1</span>), padding=(<span class="number">1</span>, <span class="number">1</span>))</span><br><span class="line">        (bn2): BatchNorm2d(<span class="number">96</span>, eps=<span class="number">1e-05</span>, momentum=<span class="number">0.1</span>, affine=<span class="literal">True</span>, track_running_stats=<span class="literal">True</span>)</span><br><span class="line">      )</span><br><span class="line">      (<span class="number">4</span>): ResidualBlock(</span><br><span class="line">        (conv1): Conv2d(<span class="number">96</span>, <span class="number">96</span>, kernel_size=(<span class="number">3</span>, <span class="number">3</span>), stride=(<span class="number">1</span>, <span class="number">1</span>), padding=(<span class="number">1</span>, <span class="number">1</span>))</span><br><span class="line">        (bn1): BatchNorm2d(<span class="number">96</span>, eps=<span class="number">1e-05</span>, momentum=<span class="number">0.1</span>, affine=<span class="literal">True</span>, track_running_stats=<span class="literal">True</span>)</span><br><span class="line">        (relu): ReLU()</span><br><span class="line">        (conv2): Conv2d(<span class="number">96</span>, <span class="number">96</span>, kernel_size=(<span class="number">3</span>, <span class="number">3</span>), stride=(<span class="number">1</span>, <span class="number">1</span>), padding=(<span class="number">1</span>, <span class="number">1</span>))</span><br><span class="line">        (bn2): BatchNorm2d(<span class="number">96</span>, eps=<span class="number">1e-05</span>, momentum=<span class="number">0.1</span>, affine=<span class="literal">True</span>, track_running_stats=<span class="literal">True</span>)</span><br><span class="line">      )</span><br><span class="line">      (<span class="number">5</span>): ResidualBlock(</span><br><span class="line">        (conv1): Conv2d(<span class="number">96</span>, <span class="number">96</span>, kernel_size=(<span class="number">3</span>, <span class="number">3</span>), stride=(<span class="number">1</span>, <span class="number">1</span>), padding=(<span class="number">1</span>, <span class="number">1</span>))</span><br><span class="line">        (bn1): BatchNorm2d(<span class="number">96</span>, eps=<span class="number">1e-05</span>, momentum=<span class="number">0.1</span>, affine=<span class="literal">True</span>, track_running_stats=<span class="literal">True</span>)</span><br><span class="line">        (relu): ReLU()</span><br><span class="line">        (conv2): Conv2d(<span class="number">96</span>, <span class="number">96</span>, kernel_size=(<span class="number">3</span>, <span class="number">3</span>), stride=(<span class="number">1</span>, <span class="number">1</span>), padding=(<span class="number">1</span>, <span class="number">1</span>))</span><br><span class="line">        (bn2): BatchNorm2d(<span class="number">96</span>, eps=<span class="number">1e-05</span>, momentum=<span class="number">0.1</span>, affine=<span class="literal">True</span>, track_running_stats=<span class="literal">True</span>)</span><br><span class="line">      )</span><br><span class="line">      (<span class="number">6</span>): ResidualBlock(</span><br><span class="line">        (conv1): Conv2d(<span class="number">96</span>, <span class="number">96</span>, kernel_size=(<span class="number">3</span>, <span class="number">3</span>), stride=(<span class="number">1</span>, <span class="number">1</span>), padding=(<span class="number">1</span>, <span class="number">1</span>))</span><br><span class="line">        (bn1): BatchNorm2d(<span class="number">96</span>, eps=<span class="number">1e-05</span>, momentum=<span class="number">0.1</span>, affine=<span class="literal">True</span>, track_running_stats=<span class="literal">True</span>)</span><br><span class="line">        (relu): ReLU()</span><br><span class="line">        (conv2): Conv2d(<span class="number">96</span>, <span class="number">96</span>, kernel_size=(<span class="number">3</span>, <span class="number">3</span>), stride=(<span class="number">1</span>, <span class="number">1</span>), padding=(<span class="number">1</span>, <span class="number">1</span>))</span><br><span class="line">        (bn2): BatchNorm2d(<span class="number">96</span>, eps=<span class="number">1e-05</span>, momentum=<span class="number">0.1</span>, affine=<span class="literal">True</span>, track_running_stats=<span class="literal">True</span>)</span><br><span class="line">      )</span><br><span class="line">      (<span class="number">7</span>): ResidualBlock(</span><br><span class="line">        (conv1): Conv2d(<span class="number">96</span>, <span class="number">96</span>, kernel_size=(<span class="number">3</span>, <span class="number">3</span>), stride=(<span class="number">1</span>, <span class="number">1</span>), padding=(<span class="number">1</span>, <span class="number">1</span>))</span><br><span class="line">        (bn1): BatchNorm2d(<span class="number">96</span>, eps=<span class="number">1e-05</span>, momentum=<span class="number">0.1</span>, affine=<span class="literal">True</span>, track_running_stats=<span class="literal">True</span>)</span><br><span class="line">        (relu): ReLU()</span><br><span class="line">        (conv2): Conv2d(<span class="number">96</span>, <span class="number">96</span>, kernel_size=(<span class="number">3</span>, <span class="number">3</span>), stride=(<span class="number">1</span>, <span class="number">1</span>), padding=(<span class="number">1</span>, <span class="number">1</span>))</span><br><span class="line">        (bn2): BatchNorm2d(<span class="number">96</span>, eps=<span class="number">1e-05</span>, momentum=<span class="number">0.1</span>, affine=<span class="literal">True</span>, track_running_stats=<span class="literal">True</span>)</span><br><span class="line">      )</span><br><span class="line">    )</span><br><span class="line">    (policy_head): PolicyHead(</span><br><span class="line">      (conv1): Conv2d(<span class="number">96</span>, <span class="number">48</span>, kernel_size=(<span class="number">3</span>, <span class="number">3</span>), stride=(<span class="number">1</span>, <span class="number">1</span>), padding=(<span class="number">1</span>, <span class="number">1</span>))</span><br><span class="line">      (bn1): BatchNorm2d(<span class="number">48</span>, eps=<span class="number">1e-05</span>, momentum=<span class="number">0.1</span>, affine=<span class="literal">True</span>, track_running_stats=<span class="literal">True</span>)</span><br><span class="line">      (relu): ReLU()</span><br><span class="line">      (conv2): Conv2d(<span class="number">48</span>, <span class="number">1</span>, kernel_size=(<span class="number">3</span>, <span class="number">3</span>), stride=(<span class="number">1</span>, <span class="number">1</span>), padding=(<span class="number">1</span>, <span class="number">1</span>))</span><br><span class="line">      (bn2): BatchNorm2d(<span class="number">1</span>, eps=<span class="number">1e-05</span>, momentum=<span class="number">0.1</span>, affine=<span class="literal">True</span>, track_running_stats=<span class="literal">True</span>)</span><br><span class="line">    )</span><br><span class="line">    (value_head): ValueHead(</span><br><span class="line">      (conv1): Conv2d(<span class="number">96</span>, <span class="number">96</span>, kernel_size=(<span class="number">3</span>, <span class="number">3</span>), stride=(<span class="number">1</span>, <span class="number">1</span>), padding=(<span class="number">1</span>, <span class="number">1</span>))</span><br><span class="line">      (bn1): BatchNorm2d(<span class="number">96</span>, eps=<span class="number">1e-05</span>, momentum=<span class="number">0.1</span>, affine=<span class="literal">True</span>, track_running_stats=<span class="literal">True</span>)</span><br><span class="line">      (conv2): Conv2d(<span class="number">96</span>, <span class="number">96</span>, kernel_size=(<span class="number">3</span>, <span class="number">3</span>), stride=(<span class="number">1</span>, <span class="number">1</span>), padding=(<span class="number">1</span>, <span class="number">1</span>))</span><br><span class="line">      (bn2): BatchNorm2d(<span class="number">96</span>, eps=<span class="number">1e-05</span>, momentum=<span class="number">0.1</span>, affine=<span class="literal">True</span>, track_running_stats=<span class="literal">True</span>)</span><br><span class="line">      (relu): ReLU()</span><br><span class="line">      (fc): Linear(in_features=<span class="number">96</span>, out_features=<span class="number">1</span>, bias=<span class="literal">True</span>)</span><br><span class="line">    )</span><br><span class="line">  )</span><br><span class="line">)</span><br></pre></td></tr></table></figure><hr><blockquote><p>é—®ï¼šä½ äº†è§£è¿‡ä»€ä¹ˆæ·±åº¦å­¦ä¹ æ¡†æ¶å—ï¼Ÿ</p></blockquote><p>ç­”ï¼šä¸»è¦ä½¿ç”¨è¿‡pytorchæ¡†æ¶</p><blockquo
…
